Machine_Learning/ML_Hungyi-Lee_2023/HW01/Simple_code/models/model.ckpt (torch, 10612 bytes, 5 tensors)

layers.0.weight f4 [16, 117]
-0.27896574 0.087427445 0.061286468 -0.0030747426 0.0789497 0.018660653 -0.021907927 0.03403228
0.04248554 0.013123195 -0.017748628 -0.016447414 -0.016572868 -0.014333478 0.020676525 0.0133205885
0.048240736 0.021033026 0.0898149 0.066851094 0.06738939 -0.057850365 0.06528775 0.073564954
0.060557783 -0.042287715 0.0513263 0.07084593 -0.08928508 0.064507306 0.055485845 -0.08170174
-0.012112842 -0.028931146 -0.014542227 0.039121047 -0.023334587 -0.07153144 0.0378221 0.050526153
-0.017269442 0.08902604 -0.029479666 -0.069489956 -0.07210395 -0.08261661 0.062009312 -0.03195623
0.033858452 -0.06570827 -0.065774694 0.0670858 0.031780314 -0.039308548 0.047927063 -0.053271387
-0.008724828 -0.066347495 0.012056283 -0.015321461 -0.0726517 -0.08173603 -0.031522937 0.011006738
-0.045532156 -0.068288974 0.047168434 0.019427814 0.08479338 0.0728731 0.041206397 0.057071824
-0.07487392 -0.055087697 0.05124219 0.08703577 0.058485854 -0.04316571 0.06033463 -0.09877963
0.03108388 -0.020199964 0.05728795 0.08247613 0.0832755 0.08640534 0.054390453 -0.024618521
-0.0050036414 -0.021039806 0.05165114 0.001149315 -0.050810304 -0.049209382 -0.01789114 0.029617384
0.07110424 0.011131337 -0.06698135 0.048291776 -0.049912672 0.051620107 0.049459487 0.006034981
-0.0075144367 0.02143525 0.03443128 0.0726363 -0.042328786 0.061063863 0.0010177133 0.017697329
-0.06922478 0.007736829 0.082831495 0.041634675 -0.0026307958 0.011139715 0.027485827 0.063487396
0.097810864 -0.008731753 0.016714921 -0.010032678 0.04477461 -0.042813566 0.058274183 0.013637909
-0.0050575216 0.02119997 0.07313565 -0.035081863 -0.09432096 -0.0038050613 -0.07303219 0.0579563
0.093436 0.021294663 0.10012871 0.06541289 -0.031242969 0.08059593 -0.08574049 -0.075263925
-0.049555358 -0.033042975 0.012275905 0.032479797 0.094203174 -0.0071110027 -0.05341726 0.022760903
0.005331787 -0.060295295 -0.0056952178 -0.029629156 0.055087686 0.06634781 0.05099443 0.020603195
-0.021562872 0.03656383 0.0029887457 0.03191119 -0.0789613 -0.001473617 -0.020709254 0.054359637
-0.091403574 -0.05221128 0.18125127 -0.026513731 -0.028486809 -0.011938511 0.02641814 0.04457915
0.07195824 0.009746973 -0.017173046 -0.0060200044 0.028573515 0.023384174 -0.0080394335 -0.054571092
-0.056136232 -0.014521904 0.37973568 -0.051957402 -0.018888908 0.017080959 -0.02519396 0.058024622
-0.034068756 -0.06538315 0.028857773 0.037019357 -0.048909865 -0.019477667 0.008465265 0.02100181
0.05446171 0.037743147 0.57603705 0.010278047 0.0058836336 -0.0018514873 0.120128274 0.03730349
0.0005075769 0.04048489 -0.09604115 0.08695062 -0.06320489 -0.0548934 -0.0984945 0.04689076
-0.013017163 -0.11249727 0.6938359 0.03703739 0.08215655 0.13917817 0.06349547 0.016642403
-0.046254333 0.020279048 0.020030886 -0.061626695 0.042589184 0.07170241 -0.022121139 0.0154944165
-0.09970671 -0.0058266283 -0.044658966 -0.0814682 -0.015967203 -0.029748768 0.046136722 0.07313105
0.07063358 8.086418e-06 -0.033840317 0.05142304 -0.07571457 0.0054713045 -0.058836132 0.005458625
-0.05901656 -0.011241496 -0.04002735 0.0006192821 0.003707652 -0.07154631 0.046935875 0.076821916
00000000: 99d4 8ebe 290d b33d 8507 7b3d 9f81 49bb
00000010: 61b0 a13d 3ade 983c 4178 b3bc 6f65 0b3d
00000020: 5105 2e3d ab02 573c 9265 91bc babc 86bc
00000030: d3c3 87bc f7d6 6abc d161 a93c 993e 5a3c
00000040: 1498 453d 744d ac3c e0f0 b73d 3ae9 883d
00000050: 7303 8a3d 81f4 6cbd 95b5 853d 39a9 963d
00000060: 700b 783d e235 2dbd 873b 523d ac17 913d
00000070: 19db b6bd 681c 843d 2045 633d 3e53 a7bd
00000080: f174 46bc 0301 edbc 8542 6ebc 643d 203d
00000090: 2d28 bfbc 137f 92bd 59eb 1a3d 83f4 4e3d
000000a0: a578 8dbc 4953 b63d 577f f1bc c050 8ebd
000000b0: 3cab 93bd e632 a9bd 7afd 7d3d 89e4 02bd
000000c0: 29af 0a3d 0f92 86bd e2b4 86bd 4864 893d
000000d0: 132c 023d 0002 21bd 2b4f 443d 1933 5abd
000000e0: 95f2 0ebc 32e1 87bd b787 453c dd06 7bbc
000000f0: 6aca 94bd 3865 a7bd 321e 01bd 9b55 343c
00000100: ed7f 3abd 17db 8bbd b033 413d 1427 9f3c
00000110: 27a8 ad3d 7e3e 953d 0ac8 283d 25c4 693d
00000120: 7f57 99bd a3a3 61bd 55e3 513d cf3f b23d
00000130: dd8e 6f3d 87ce 30bd 7221 773d fa4c cabd
00000140: 9fa3 fe3c 657a a5bc c5a6 6a3d 3fe9 a83d
00000150: 588c aa3d 48f5 b03d 86c8 5e3d c8ac c9bc
00000160: 96f5 a3bb ac5b acbc 2590 533d 9da4 963a
00000170: 771e 50bd c78f 49bd 7190 92bc 28a0 f23c
00000180: 1a9f 913d 3660 363c 852d 89bd 99cd 453d
00000190: 3b71 4cbd 9b6f 533d 0896 4a3d 17c1 c53b
000001a0: aa3b f6bb fa98 af3c d007 0d3d 57c2 943d
000001b0: f360 2dbd 1a1e 7a3d cb64 853a fdf9 903c
000001c0: b9c5 8dbd 3a85 fd3b 8fa3 a93d 1f89 2a3d
000001d0: 6e69 2cbb 5a83 363c f529 e13c ae05 823d
000001e0: 1051 c83d a00f 0fbc bbed 883c 1a60 24bc
000001f0: 9565 373d 475d 2fbd e9b0 6e3d 8971 5f3c
00000200: 91b9 a5bb 8fab ad3c 25c8 953d 00b2 0fbd
00000210: 592b c1bd 565e 79bb e791 95bd 9663 6d3d
00000220: 605b bf3d 2572 ae3c 4810 cd3d 31f7 853d
00000230: 41f1 ffbc 7b0f a53d b698 afbd f923 9abd
00000240: 8ffa 4abd 1258 07bd e120 493c 8909 053d
00000250: 98ed c03d 6a03 e9bb 0fcc 5abd 1375 ba3c
00000260: 45b6 ae3b 33f8 76bd f39e babb d8b8 f2bc
00000270: a0a3 613d 5ce1 873d 89df 503d 08c8 a83c
00000280: 9fa4 b0bc f4c3 153d d5de 433b 4fb5 023d
00000290: 76b6 a1bd 6226 c1ba 74a6 a9bc 36a8 5e3d
000002a0: cc31 bbbd 7fdb 55bd ef99 393e 5333 d9bc
000002b0: 2b5d e9bc bf99 43bc db6a d83c a098 363d
000002c0: d75e 933d c5b1 1f3c 7dae 8cbc 7543 c5bb
000002d0: 0113 ea3c 2b90 bf3c d4b7 03bc f085 5fbd
000002e0: 1bef 65bd 48ed 6dbc b76c c23e 49d1 54bd
000002f0: e9bc 9abc 5eed 8b3c 9063 cebc 3aab 6d3d
00000300: ae8b 0bbd 9ae7 85bd 2367 ec3c 9ca1 173d
00000310: b655 48bd a18f 9fbc e5b1 0a3c fd0b ac3c
00000320: 3e13 5f3d 8f98 1a3d 2a77 133f 4165 283c
00000330: 7fcb c03b 9bad f2ba d005 f63d 8bcb 183d
00000340: e90e 053a 7cd3 253d 39b1 c4bd 2b13 b23d
00000350: 9171 81bd e7d7 60bd 7cb7 c9bd 8710 403d
00000360: f045 55bc f864 e6bd 3b9f 313f 85b4 173d
00000370: b141 a83d b984 0e3e ea09 823d a655 883c
00000380: 2f75 3dbd 3f20 a63c d017 a43c 466c 7cbd
00000390: ff71 2e3d b7d8 923d 6437 b5bc 4bdc 7d3c
000003a0: 0833 ccbd 4ded bebb 52ec 36bd cdd8 a6bd
000003b0: a7cd 82bc b0b3 f3bc dcf9 3c3d bbc5 953d
000003c0: 57a8 903d e7aa 0737 259c 0abd f7a0 523d
000003d0: 3e10 9bbd a148 b33b 28fe 70bd 44de b23b
000003e0: 59bb 71bd 402e 38bc b8f3 23bd 5157 223a
000003f0: 14fc 723b df86 92bd d53f 403d cf54 9d3d

layers.0.bias f4 [16]
0.019847646 0.06462743 -0.082362145 -0.053353507 -0.014554267 -0.089122556 -0.086730264 -0.06999558
0.059802983 -0.01239565 -0.08271247 -0.059651185 0.046873517 0.052382737 0.064224616 -0.029664306
00000000: 8897 a23c 635b 843d 7cad a8bd 3589 5abd
00000010: 0575 6ebc e385 b6bd a39f b1bd d859 8fbd
00000020: f9f3 743d 2017 4bbc 2865 a9bd cd54 74bd
00000030: 72fe 3f3d 488f 563d 3288 833d 8f02 f3bc

layers.2.weight f4 [8, 16]
0.051286865 0.05578553 -0.090353675 -0.052879155 0.05190869 0.18373343 -0.0846714 0.14830753
0.07044595 -0.19617543 0.11330935 -0.2572298 -0.14854655 -0.060190063 -0.11184029 0.05951389
-0.043171417 0.00590422 0.20297062 0.23845777 0.05945565 0.18110391 0.16921157 -0.18126759
-0.069580406 -0.11676341 0.13863337 -0.09103629 -0.0055727065 0.019330412 -0.054034077 0.1518752
0.1906974 -0.05684914 0.048593782 -0.14856751 0.039131287 0.12535408 -0.21428004 0.12490254
0.112980925 0.05883357 0.24336115 0.11040382 -0.020286202 -0.22128676 -0.16006419 0.20879138
0.14352372 0.22104745 0.08044399 -0.16578253 0.18871213 0.029029015 -0.07856638 0.28261623
0.21425082 0.028089464 0.12162486 0.008515717 -0.07819465 0.23830387 -0.070554025 0.30208746
0.055605568 -0.0012777556 0.005720052 0.22200072 -0.19965431 -0.13131376 0.06745957 -0.054223146
-0.107358344 0.0022524893 -0.1765992 0.12084987 0.03914264 -0.042751912 -0.13663796 -0.19394533
-0.22107954 0.102704756 0.1277848 0.18910053 0.1624904 0.1117772 0.12282643 -0.07798279
-0.1447813 -0.15506738 0.20679435 0.130525 -0.03686765 -0.0029484362 -0.15014789 0.043546002
0.19265655 -0.18983866 0.18857788 -0.20545334 0.10717212 0.13788687 -0.16338526 -0.27494216
-0.0029871375 -0.07973981 -0.03869593 -0.2968471 0.24923834 0.19215438 0.014325818 -0.06224008
0.24485478 0.115581684 -0.11758491 -0.10876739 -0.11560915 -0.04931113 -0.18166819 0.20238104
-0.07401693 0.14258632 0.13195416 0.055863295 -0.14260247 0.19134817 0.2765084 -0.016068622
00000000: 2d12 523d 5e7f 643d 590b b9bd d097 58bd
00000010: 359e 543d 9e24 3c3e 3368 adbd eedd 173e
00000020: f745 903d 36e2 48be bc0e e83d a0b3 83be
00000030: 961c 18be db89 76bd 860c e5bd d6c4 733d
00000040: 83d4 30bd 3078 c13b 88d7 4f3e 462e 743e
00000050: c587 733d 4e73 393e cc45 2d3e 369e 39be
00000060: 2c80 8ebd a821 efbd e8f5 0d3e 3c71 babd
00000070: 409b b6bb d05a 9e3c d652 5dbd 2c85 1b3e
00000080: 2e46 433e a5da 68bd 460a 473d 1522 18be
00000090: 2148 203d d25c 003e 3a6c 5bbe e7cc ff3d
000000a0: 8b62 e73d 78fb 703d aa33 793e 661b e23d
000000b0: 402f a6bc ff98 62be dee7 23be 68cd 553e
000000c0: e2f7 123e 435a 623e d2bf a43d e5c2 29be
000000d0: c13d 413e 42ce ed3c 69e7 a0bd 13b3 903e
000000e0: 9164 5b3e e01b e63c 7416 f93d 8285 0b3c
000000f0: 8424 a0bd ee05 743e a17e 90bd 35ab 9a3e
00000100: aac2 633d 5d7a a7ba 466f bb3b 2854 633e
00000110: 2e72 4cbe 1d77 06be 3e28 8a3d 1719 5ebd
00000120: b1de dbbd 809e 133b 6cd6 34be 2380 f73d
00000130: 0854 203d a11c 2fbd d2ea 0bbe 9b99 46be
00000140: ad62 62be df56 d23d 05da 023e 92a3 413e
00000150: e263 263e 72eb e43d 6c8c fb3d 71b5 9fbd
00000160: 8d41 14be fcc9 1ebe e6c1 533e 58a8 053e
00000170: 8802 17bd 8d3a 41bb 5ec0 19be 4b5d 323d
00000180: c247 453e 1165 42be 8f1a 413e 5c62 52be
00000190: 0e7d db3d 3732 0d3e 774e 27be 38c5 8cbe
000001a0: dac3 43bb a04e a3bd a07f 1ebd 58fc 97be
000001b0: 5638 7f3e 1ec4 443e d6b6 6a3c 74ef 7ebd
000001c0: 36bb 7a3e 17b6 ec3d 5bd0 f0bd 70c1 debd
000001d0: 7dc4 ecbd 78fa 49bd 3a07 3abe fa3c 4f3e
000001e0: 3096 97bd 2602 123e fe1e 073e e9d0 643d
000001f0: 6206 12be c6f0 433e 8292 8d3e 58a2 83bc

layers.2.bias f4 [8]
0.24438238 -0.111133285 0.21612054 0.23172535 0.05214867 -0.19829325 0.16159727 0.14377496
00000000: 603f 7a3e d999 e3bd b44e 5d3e 6949 6d3e
00000010: d899 553d 630d 4bbe c179 253e be39 133e

layers.4.weight f4 [1, 8]
0.1960104 -0.12332721 0.08703318 0.38352823 -0.16929759 0.009486091 -0.14855331 0.19612545
00000000: f3b6 483e fa92 fcbd 743e b23d d05d c43e
00000010: 595c 2dbe 8d6b 1b3c 5c1e 18be 1cd5 483e
